…
____________________________________________
	Câu			 				|	Nhãn
================================|===========
bla bla book not good 			| __label__ 1  => Negative
________________________________|___________
bla bla good book 				| __label__ 2  => Positive

* Phân bố dự liệu:
  + Tổng 10000 câu
  + Negative: 5097 câu
  + Positive: 4903 câu
  + Xem biểu đồ phân bố ne/po, train/test


# Mô hình(LSTM):

_________________________________________________________________
Layer (type)                 Output Shape              Param #   
=================================================================
input_1 (InputLayer)         (None, 215)               0         
_________________________________________________________________
embedding_1 (Embedding)      (None, 215, 50)           20000050  
_________________________________________________________________
lstm_1 (LSTM)                (None, 215, 128)          91648     
_________________________________________________________________
dropout_1 (Dropout)          (None, 215, 128)          0         
_________________________________________________________________
lstm_2 (LSTM)                (None, 128)               131584    
_________________________________________________________________
dropout_2 (Dropout)          (None, 128)               0         
_________________________________________________________________
dense_1 (Dense)              (None, 2)                 258       
_________________________________________________________________
activation_1 (Activation)    (None, 2)                 0         
=================================================================
Total params: 20,223,540
Trainable params: 223,490
Non-trainable params: 20,000,050

* Thống số như trên:
	+ Cụ thể: 	- Lớp Input: Nhận đầu vào
				- Lớp Embedding: Lớp này đã được pre-trained nên không train nữa.
				- 2 Lớp LSTM với Dropout đi kèm phía sau
				- 1 Lớp Fuly-connected (2 unit => 2 lớp) với activation: Softmax để trả về đầu ra với bài toán phân loại.
…
